GUI-master/data.pth (torch, 8791 bytes, 6 tensors)

l1.weight f4 [10, 102]
0	0x3f792edb	0.9733712
1	0x3f771d4c	0.9652908
2	0x3f94e7a0	1.1633186
3	0x3f8fd505	1.1236883
4	0x3f8f17ca	1.1179135
5	0x3fc9d0c6	1.5766838
6	0xbdba6802	-0.09101869
7	0x40065501	2.0989382
8	0x3fa977d9	1.32397
9	0x3e37ff46	0.17968473
10	0x3ecde6bf	0.40215108
11	0x4004b641	2.073624
12	0x3fee7666	1.8629882
13	0x3fc2d634	1.522162
14	0x401217eb	2.2827098
15	0x3f5df644	0.86703897
16	0x3f548140	0.8300972
17	0x3d20d0a3	0.03926147
18	0x3e9302b9	0.28713015
19	0xbe11b5c4	-0.14229494
20	0x3f57d0b0	0.84302807
21	0x40080047	2.125017
22	0x3d41be5a	0.047300674
23	0xbd260da6	-0.04054036
24	0x4055cd5c	3.3406591
25	0x3ed058fb	0.40692887
26	0xbe04d908	-0.12973416
27	0x3f1050e3	0.56373423
28	0x4001dbb3	2.0290344
29	0x3e8ae196	0.27125233
30	0x3fef2083	1.8681797
31	0x3fc2fcbd	1.523338
32	0x4028ed2f	2.6394765
33	0xbf5ae51a	-0.8550583
34	0x4030c859	2.7622283
35	0x3fcc1886	1.5944984
36	0x3f4123fc	0.7544553
37	0x3ed0e541	0.40799907
38	0x3f5c177d	0.8597334
39	0x3f5cfa6f	0.8631963
40	0x3eb73934	0.3578583
41	0x3fb41bfd	1.4071041
42	0x40138471	2.3049586
43	0x3f1fd289	0.62430626
44	0x401b5963	2.4273307
45	0x3f83cf33	1.0297607
46	0x403ffe04	2.999879
47	0x3fafb7ff	1.3728026
48	0xbdc900bd	-0.09814594
49	0x3f93b338	1.1539068
50	0x4024eca5	2.5769436
51	0x3ffb897f	1.9651335
52	0x3f0a1315	0.53935367
53	0x3db14f61	0.086577184
54	0x3fc4027f	1.5313262
55	0x3fcd2cee	1.6029336
56	0x3f38cf68	0.72191477
57	0x3fc6b4b6	1.5523899
58	0x3fb3212a	1.3994496
59	0x3e3738e5	0.17892797
60	0x3f5fc6ef	0.87412924
61	0x3f8c3c71	1.0955945
62	0xbe00ff62	-0.12597421
63	0x4028990a	2.6343408
64	0x3ff66bc4	1.9251637
65	0x40106993	2.2564437
66	0x400e478e	2.2231174
67	0x3fcb13fa	1.5865471
68	0x3fca0564	1.5782895
69	0xbe7d388f	-0.24728607
70	0x4003bdbb	2.0584552
71	0x3f4605c0	0.77352524
72	0x3fbd9165	1.4809996
73	0x3e84b315	0.2591788
74	0xbea8b0da	-0.32947427
75	0x3fb243b2	1.3926909
76	0x3f066090	0.5249109
77	0x4017cd43	2.3719032
78	0x3fd8157c	1.6881557
79	0x3f80dadc	1.006679
80	0x3e3af8ab	0.18258922
81	0x3e808fb3	0.25109634
82	0x3f42bd9d	0.76070577
83	0x3fe5a97c	1.7942348
84	0x400d8f3c	2.2118673
85	0xbe0d9ed4	-0.1383012
86	0x3f8fa951	1.1223546
87	0xbc9925f2	-0.018694852
88	0x3fe541ca	1.7910702
89	0x3ff88dfd	1.9418331
90	0x3fe72ae6	1.8059967
91	0x3e25c6f8	0.16189182
92	0x3ded836c	0.11597332
93	0xbe136192	-0.14392689
94	0x3f22c959	0.6358848
95	0x401553e4	2.3332453
96	0xbec46d9d	-0.38364878
97	0x3f1d5be1	0.6146832
98	0xbde2a1e0	-0.110660315
99	0x3fdcd94a	1.7253811
100	0x401c31d0	2.4405403
101	0x3fc92baa	1.571645
102	0x3f855021	1.0415078
103	0x3f818ffc	1.0122066
104	0x3ffb2267	1.9619874
105	0x4001dd8e	2.0291476
106	0x3f875229	1.0571948
107	0x3f3b14d6	0.7307867
108	0xbdb8a953	-0.09016671
109	0x401d5e58	2.4588833
110	0x3e4df6ff	0.20113753
111	0x3e856815	0.2605597
112	0x3f99e8cf	1.2024173
113	0xbda07c5a	-0.07836218
114	0x3fd450b2	1.6587126
115	0x3fe9107e	1.8208158
116	0x3fbff407	1.4996346
117	0x3fab685c	1.3391223
118	0x3fa46098	1.2841978
119	0xbd004525	-0.03131594
120	0x3ec70cb1	0.3887687
121	0x3fe9daeb	1.8269933
122	0x3fa64ee4	1.2992826
123	0x3fa49a53	1.2859596
124	0x3eca96fa	0.3956831
125	0x3d0c8833	0.034309577
126	0x3fd066f5	1.628142
127	0x3fa0dfb9	1.2568275
128	0x3f892504	1.0714421
129	0x3ea4075d	0.32036868
130	0x3ecd3abb	0.4008387
131	0x3f9b3079	1.2124168
132	0x3df2c0c5	0.11853174
133	0x3fb62d1f	1.423252
134	0x3f11d2b9	0.5696216
135	0x3fe0a578	1.7550497
136	0x3f6bc552	0.9209796
137	0x400524c2	2.0803685
138	0x3df6a2f4	0.120427996
139	0x3f5edd7e	0.8705672
140	0x4010c73f	2.262161
141	0x3fa9629f	1.3233222
142	0x3ed9f0b8	0.42566466
143	0x3f95c34a	1.1700222
144	0x3fecc204	1.8496709
145	0x3ef5ad6b	0.4798387
146	0x4000aa1b	2.0103824
147	0x3f3d9bda	0.74065936
148	0x4000fe1e	2.01551
149	0x3f8c4f3f	1.0961684
150	0x3e7aebff	0.24504088
151	0x3fac7bb2	1.3475249
152	0xbeeb5d4d	-0.4596962
153	0x3fdfa20d	1.7471329
154	0x3f5e2bb6	0.8678545
155	0x3ed9f220	0.4256754
156	0x3fb93810	1.4470234
157	0x3f3579a4	0.70888734
158	0x3eae6d9c	0.34068
159	0x3fbd6e26	1.479924
160	0x3f984301	1.1895448
161	0x3c81b90e	0.015835311
162	0x3f222cd6	0.63349664
163	0x3f9cad18	1.2240324
164	0x3e8cf750	0.27532434
165	0x3fd8ef10	1.6947956
166	0x40466336	3.0998054
167	0x3fe40b7a	1.7816002
168	0x3ff57655	1.9176737
169	0x3ffa7eed	1.9569985
170	0x3fb52813	1.4152855
171	0x3f1c18b2	0.6097518
172	0x400d5a87	2.2086504
173	0x3dc48b9f	0.09596943
174	0x40040a7c	2.06314
175	0x3d408453	0.047001194
176	0x3e0e9fb1	0.13928105
177	0xbd88d351	-0.066809304
178	0x3f97657c	1.1827846
179	0x4036bc08	2.8552265
180	0x3f9cbd12	1.22452
181	0x3f38292a	0.7193781
182	0x3ea33e19	0.31883314
183	0x3ebf7653	0.37394962
184	0x3faf5291	1.3697072
185	0x3fbdf899	1.4841491
186	0x3fdc86ff	1.7228698
187	0x3f0878ec	0.5330951
188	0x3f96858f	1.1759509
189	0xbe104fd6	-0.14092955
190	0x3ff5ffe4	1.9218717
191	0x40000997	2.0005853
192	0x40542cf8	3.3152447
193	0xbc8b89c7	-0.01703347
194	0x3f6dda0d	0.92910844
195	0x3ed5a39a	0.4172638
196	0x3eec0357	0.46096298
197	0x3f0bdc9b	0.5463349
198	0x402e59f9	2.7242415
199	0x3ecbb5e8	0.3978722
200	0xbe080a04	-0.1328507
201	0x3fda4190	1.7051258
202	0x4051fc37	3.281019
203	0x3fefb4ba	1.8727028
204	0x3f0bdcf8	0.54634047
205	0x3fce8b81	1.6136323
206	0x4034d7bd	2.8256676
207	0x4030d347	2.7628953
208	0x3f94ee68	1.1635256
209	0x3f86409b	1.0488466
210	0xbd01a240	-0.031648874
211	0x3fccb5ae	1.5992944
212	0x3f953bd6	1.1658885
213	0xbd87f3b9	-0.06638283
214	0x3fc3ed48	1.5306787
215	0x3fb11324	1.3833966
216	0x3f80e179	1.0068809
217	0x3f837b32	1.0271971
218	0x3ca531a8	0.02016528
219	0x3f473713	0.7781841
220	0x3f39e0cb	0.7260863
221	0xbcb12f49	-0.021628993
222	0xbde0cc5c	-0.109764785
223	0x3f7cf177	0.98805946
224	0x3f33267f	0.69980615
225	0x3e188023	0.1489263
226	0x3efd8066	0.49512023
227	0xbd0a2426	-0.03372588
228	0x406babb6	3.6823554
229	0x3fb96a06	1.4485481
230	0x3f87bfc0	1.0605392
231	0x3f29ffe5	0.6640609
232	0x3f9b139a	1.2115357
233	0x3f00a531	0.5025206
234	0x4001cedf	2.0282514
235	0x3fa5ad00	1.294342
236	0x400ab24c	2.1671324
237	0x40158b30	2.3366203
238	0x3fe3735e	1.7769582
239	0x400c5bd8	2.1931057
240	0x3f8e44ad	1.1114708
241	0x3ea97a4a	0.33101112
242	0x3f4500a1	0.76954085
243	0x3f3e60a2	0.743662
244	0x3fe6ccfd	1.8031307
245	0x3fdfd637	1.7487248
246	0x3f8838bc	1.0642314
247	0x3eb39918	0.3507774
248	0x3f8ef935	1.1169802
249	0x3f2f8196	0.6855711
250	0x4030dc36	2.7634406
251	0x3ff0a100	1.8799133
252	0x3eca370a	0.39495116
253	0x3fb5c71d	1.420139
254	0x3ffd719f	1.98003
255	0x4001582c	2.0210066

l1.bias f4 [10]
0	0x404138fe	3.0191035
1	0x4081dfc7	4.0585666
2	0x4084e0f4	4.15246
3	0x4089c28c	4.3049984
4	0x40973a55	4.7258706
5	0x406e8e46	3.7274337
6	0x407d8037	3.9609506
7	0x405ee5cd	3.482776
8	0x407ca5d2	3.9476209
9	0x406ecee6	3.731378

l2.weight f4 [10, 10]
0	0x40539bc2	3.3063817
1	0x402c7421	2.694588
2	0x3fe6a86a	1.8020146
3	0x3f5b193d	0.85585386
4	0x4082a43d	4.0825486
5	0x400272dc	2.0382605
6	0x406240ac	3.5351973
7	0x3fce6b9a	1.6126587
8	0x4086fdac	4.218466
9	0x4069222c	3.6427107
10	0xbe1552d1	-0.14582373
11	0xbe915f29	-0.28392914
12	0x3e03f704	0.12887198
13	0xbe8c2137	-0.2736909
14	0xbe758e19	-0.23979987
15	0x3dd80e78	0.10549635
16	0xbe87f8df	-0.2655706
17	0xbe73d3d6	-0.23811278
18	0x3e5c231c	0.21497768
19	0xbe927a96	-0.2860915
20	0x3fce06c3	1.6095814
21	0x40535057	3.3017786
22	0x402fd739	2.7475111
23	0x401f8e34	2.4930544
24	0x40349c22	2.8220296
25	0x40865549	4.197911
26	0x3f6c510f	0.92311186
27	0x401f4a10	2.4888954
28	0x3f68bf1c	0.9091661
29	0x4010a6b0	2.2601738
30	0x3fa1afd8	1.2631788
31	0x3ff25ae9	1.8933994
32	0x4026df30	2.6073723
33	0x4009609c	2.1465216
34	0x4065dc83	3.591584
35	0x3f38147f	0.71906275
36	0x3fc6c500	1.552887
37	0x3fee48cf	1.861597
38	0x402c6719	2.6937926
39	0x4052273c	3.2836447
40	0x3f6ee8b7	0.93323845
41	0x40755808	3.833498
42	0x3fe2abdd	1.7708699
43	0x400c5053	2.1924026
44	0x3fa3ae0c	1.278749
45	0x4056460e	3.3480258
46	0x3fe67af9	1.8006278
47	0x40237b1b	2.5543888
48	0x4022f5aa	2.5462441
49	0x40306a5b	2.7564914
50	0x4087a4e5	4.2388787
51	0x4006e808	2.107912
52	0x4044ef8b	3.0771205
53	0x4027b00b	2.6201198
54	0x3f61486f	0.8800115
55	0x4030d9db	2.7632968
56	0x406c38b8	3.6909618
57	0x401f086a	2.4848886
58	0x40502c75	3.2527134
59	0x3f51ef4f	0.8200578
60	0x4083f6da	4.1238832
61	0x3f490c38	0.7853427
62	0x40132916	2.2993827
63	0x3f8f9188	1.1216288
64	0x402ae5f7	2.670286
65	0x4030c9ce	2.7623172
66	0x405bbc25	3.4333584
67	0x40084686	2.1293044
68	0x4047391a	3.1128602
69	0x4003642b	2.0529888
70	0x3fcecf09	1.6156932
71	0x4020642d	2.5061142
72	0x3fd1474d	1.6349884
73	0x4069850a	3.648745
74	0x4035208d	2.8301117
75	0x3fb4c057	1.4121197
76	0x4049e031	3.1543086
77	0x4001e320	2.0294876
78	0x3fb2faa6	1.3982742
79	0x3f2d47eb	0.67687863
80	0x402e362f	2.722057
81	0x3fb54555	1.4161783
82	0x4065ef89	3.592745
83	0x406075e8	3.5071964
84	0x40571894	3.3608751
85	0x401e4ff3	2.4736297
86	0x40725059	3.786154
87	0x3f07215c	0.5278528
88	0x3febb521	1.8414651
89	0x4014eab9	2.3268263
90	0x3f6564f5	0.89607173
91	0x400e2b81	2.2214053
92	0x4042cbd7	3.0436914
93	0x403ab939	2.917555
94	0x3f8ccb44	1.0999532
95	0x3f7cf198	0.9880614
96	0x3f8973dd	1.0738484
97	0x406275ad	3.5384324
98	0x4001cb29	2.028025
99	0x40500aac	3.2506514

l2.bias f4 [10]
0	0x4026fe01	2.6092532
1	0xbda9e3ab	-0.08295377
2	0x3f7c77dc	0.9862039
3	0x4001084d	2.0161316
4	0x401e800f	2.476566
5	0x3fb32f59	1.3998824
6	0x3fad3419	1.3531524
7	0x4021981c	2.524909
8	0x403c02f4	2.9376802
9	0x3fced3b2	1.6158354

l3.weight f4 [17, 10]
0	0xbee68805	-0.4502565
1	0xbe62efa5	-0.2216173
2	0x3e2d74d1	0.16939093
3	0xbfed2f89	-1.8530132
4	0x3e34aecf	0.17644809
5	0xbf9fba6b	-1.2478765
6	0xc02c039c	-2.6877203
7	0xbf942df0	-1.1576519
8	0xc024a00e	-2.572269
9	0xbf95a05c	-1.1689563
10	0xc0470476	-3.1096473
11	0x3e0107b6	0.12600598
12	0x3e9c8c4d	0.3057579
13	0xc0276ceb	-2.6160228
14	0x3eb47fac	0.35253656
15	0xbf41e10b	-0.75734013
16	0xc00e2ba6	-2.221414
17	0xbe01af1a	-0.12664452
18	0xbfe3a550	-1.7784824
19	0xbef71968	-0.4826157
20	0xbfa7f743	-1.3122333
21	0x3e83ee03	0.25767526
22	0xbf89bcf1	-1.0760785
23	0xc03f3dbe	-2.9881434
24	0xbf4252ee	-0.7590779
25	0xbe2b0d23	-0.1670423
26	0xbff386a5	-1.9025465
27	0xbe345611	-0.17610957
28	0xbff7e66d	-1.9367195
29	0xbed7788a	-0.42084152
30	0xbee2462f	-0.4419417
31	0x3e91aa82	0.284504
32	0xbf1a0eab	-0.6017863
33	0xc005f37f	-2.0929868
34	0xbe01fa68	-0.12693179
35	0x3b9342fb	0.0044940687
36	0xbf8c04ec	-1.0939002
37	0xbf972fd2	-1.1811469
38	0xc03d5a75	-2.958646
39	0xc02914b7	-2.6418893
40	0xc03cfc8d	-2.9529145
41	0x3e9855a0	0.29752827
42	0xbf81aa2c	-1.0130057
43	0xc00138a5	-2.0190823
44	0xbf88e827	-1.0695847
45	0xbf10add0	-0.56515217
46	0xc022591c	-2.5366888
47	0x3dda767d	0.10667131
48	0x3e955954	0.29169714
49	0xbf60cab8	-0.87809324
50	0xbfe4bb76	-1.7869709
51	0x3e260d8f	0.1621611
52	0xc021d3b2	-2.5285459
53	0xbfd26cd9	-1.6439468
54	0xc04391cb	-3.0557735
55	0xbd6b5f2e	-0.057463817
56	0xbee6cda3	-0.45078763
57	0xbecee6f9	-0.40410593
58	0x3dd3fa6a	0.10350497
59	0xbf9f4f74	-1.2446122
60	0xbfb7495d	-1.4319264
61	0x3d823c75	0.063591875
62	0xc018a409	-2.385012
63	0xbf2cb931	-0.6747008
64	0xbf9e77c8	-1.2380304
65	0xbf4290a9	-0.76001984
66	0xbfe6c3a5	-1.8028456
67	0xbf89e9ec	-1.0774512
68	0xbf680046	-0.9062542
69	0xbecb03f1	-0.39651445
70	0x3c05e5f5	0.008172502
71	0x3e8c3491	0.27383855
72	0xbfc31ea6	-1.5243728
73	0xbe30a747	-0.17251311
74	0xbf4d06fd	-0.8008879
75	0xc04e7222	-3.225716
76	0xc0524687	-3.2855546
77	0xbe900a00	-0.2813263
78	0xbe074b3d	-0.13212295
79	0xbfb436e8	-1.4079256
80	0xbe6a4f50	-0.22881818
81	0x3dededf3	0.11617651
82	0xbfa62221	-1.2979165
83	0xbf81794b	-1.0115141
84	0xbf73b889	-0.95203453
85	0xbf9daf0b	-1.2319044
86	0xbf85e03f	-1.045906
87	0xbeaba51f	-0.33524415
88	0xbf96cf29	-1.178197
89	0xc07cc01d	-3.9492257
90	0xbd063c29	-0.032772217
91	0x3ccb797a	0.024838198
92	0xc0218456	-2.5237021
93	0x3eef0902	0.4668656
94	0xc00a1aa6	-2.1578765
95	0xc0183343	-2.3781288
96	0x3c9e72f7	0.019341929
97	0xbf9a6ec3	-1.2065052
98	0xbfb410fb	-1.4067682
99	0xbfe557be	-1.7917402
100	0xbfdd9329	-1.7310535
101	0x3dbd0b3a	0.09230657
102	0xbe108f86	-0.1411725
103	0xbf2a6456	-0.6655935
104	0xbf8c028f	-1.0938281
105	0xbfd30554	-1.6486001
106	0xc0287fb2	-2.632794
107	0xbf2fb309	-0.6863256
108	0xbfd8f7c6	-1.6950614
109	0xbdae12b2	-0.084996596
110	0xbf359467	-0.7092957
111	0xbe06d184	-0.13165861
112	0xc024114b	-2.5635555
113	0xbf691fa7	-0.9106392
114	0xbf1d830a	-0.61528075
115	0xbee47319	-0.44619063
116	0xbeede86d	-0.4646639
117	0xbfe1171e	-1.758518
118	0xc0358311	-2.8361247
119	0xbeed783b	-0.4638079
120	0xbf254a27	-0.6456627
121	0x3de69b01	0.112600334
122	0xbf5d906b	-0.8654849
123	0xbe615986	-0.22006807
124	0xbc130caa	-0.008975187
125	0xbfc0850c	-1.5040603
126	0xbfd7fe1f	-1.6874427
127	0xc03b6799	-2.928198
128	0xc02f928a	-2.743319
129	0xbddec0ed	-0.108766414
130	0xbfb17d9f	-1.3866462
131	0x3e4de249	0.20105852
132	0xbf43743d	-0.7634924
133	0xbff2a4de	-1.8956563
134	0xc01f9a80	-2.493805
135	0xbf336721	-0.7007924
136	0xbe43aa49	-0.19107927
137	0xbf8fad5c	-1.122478
138	0xbe724b73	-0.23661594
139	0xc01d693d	-2.4595482
140	0xbedecb25	-0.43514362
141	0x3d9ec6f5	0.07752792
142	0xc01571c2	-2.3350682
143	0xbf876ee9	-1.0580722
144	0xc01e75a9	-2.4759314
145	0xbefb572c	-0.49089944
146	0xbdd8016d	-0.10547147
147	0xbfcfeb2e	-1.6243646
148	0xbf9d40a0	-1.2285347
149	0xbfb7d1ce	-1.4360902
150	0xbf541609	-0.8284612
151	0x3e2115fe	0.15731046
152	0xbf97d700	-1.1862488
153	0xbf0b2137	-0.54347557
154	0xc005a5e7	-2.0882509
155	0xbf839aab	-1.0281576
156	0xbf1e96e6	-0.61949
157	0xc0191cbf	-2.3923795
158	0xbfd466ad	-1.6593834
159	0xbf0f106d	-0.5588444
160	0xbfa194f0	-1.2623577
161	0xbe70b01b	-0.23504679
162	0xbf0ce8fd	-0.5504301
163	0xbfd0c85f	-1.6311148
164	0xbf22a9a8	-0.63540125
165	0xbf87de04	-1.0614629
166	0xbf712847	-0.94202083
167	0xc0362f4e	-2.8466372
168	0xbf728be8	-0.9474473
169	0xbf9623c0	-1.172966

l3.bias f4 [17]
0	0xbede0ba3	-0.43368253
1	0xbea2c96e	-0.31794304
2	0xbdc7a016	-0.09747331
3	0xbf421c90	-0.7582483
4	0x3e9f477c	0.31109226
5	0xbe5cfa64	-0.21579891
6	0xbeb66daf	-0.35630557
7	0x3e8d24ec	0.27567232
8	0x3eaf2501	0.3420792
9	0xbd9857f1	-0.074386485
10	0xbef1587b	-0.47137818
11	0xbdba0d38	-0.090845525
12	0xbdf487d5	-0.119399704
13	0xbfc688a8	-1.5510454
14	0xbeed974f	-0.46404502
15	0xbf623047	-0.88354915
16	0xbe7f0f88	-0.24908268
